Assets/04ML/AnimalAgent.onnx (onnx, 111146 bytes, 8 tensors)

action_model._discrete_distribution.branches.0.weight f4 [1, 256]
0	0x3a8af5bd	0.00106018
1	0xbb0165d9	-0.0019744544
2	0x3ada5722	0.0016658048
3	0x3a92fe08	0.0011214623
4	0xbaa333e2	-0.0012451375
5	0xbae00968	-0.0017092647
6	0xbb57ff67	-0.0032958628
7	0xb95d933b	-0.0002113105
8	0x39e3e02f	0.00043463844
9	0xbbdff518	-0.0068346374
10	0x3c0a7123	0.008449825
11	0xbbc6ef39	-0.006070998
12	0x3bcedc48	0.0063128807
13	0x3c0f09e3	0.0087303845
14	0xbc3e7707	-0.011625058
15	0x3c076fef	0.008266433
16	0xbc139bbe	-0.0090093
17	0x3c2637e9	0.010145166
18	0x3bfa5a60	0.007640168
19	0x3aa4467b	0.0012533212
20	0x3be527eb	0.006993284
21	0x3a8a3516	0.0010544385
22	0xbb04328f	-0.0020171737
23	0xbb80066a	-0.0039070146
24	0x3ba46ea3	0.0050180717
25	0x3c009619	0.007848286
26	0xbb4c4466	-0.0031168698
27	0xb8e90d27	-0.000111127556
28	0x3a740658	0.00093088066
29	0x3b515ed0	0.0031947382
30	0x3c18da1b	0.009329344
31	0x3b3d4741	0.0028881582
32	0xbc18b895	-0.009321352
33	0xbbe61105	-0.007021072
34	0xbad4b4ea	-0.0016228233
35	0xbc28567a	-0.010274524
36	0xbbfc1f3d	-0.0076941536
37	0x3c1ffc6f	0.009764775
38	0xbc47bd43	-0.01219112
39	0xbba34140	-0.0049821436
40	0xb90ef380	-0.00013632886
41	0xba83c427	-0.0010052965
42	0x3c4591c2	0.012058677
43	0xb9583df7	-0.00020622449
44	0xbbfd2cdd	-0.0077262954
45	0xbc4e7bdd	-0.0126027735
46	0xbbd6a823	-0.006550805
47	0x3a6c9abd	0.00090257433
48	0x3b874e7b	0.0041292286
49	0xba2c74b2	-0.0006578668
50	0xbbe8b193	-0.0071012466
51	0x3c7c598f	0.015402212
52	0xbad3b522	-0.0016152004
53	0xbbae0625	-0.005310791
54	0xbaf534f8	-0.0018707803
55	0x39c0f543	0.00036803828
56	0xbc1179f7	-0.008879176
57	0xbb2a0a49	-0.0025946072
58	0xbb344e37	-0.002751244
59	0xbb06d5c3	-0.002057419
60	0x3bbc858a	0.005753224
61	0x39e67e78	0.00043963245
62	0xb8c2285f	-9.2581606e-05
63	0x3b4d54e2	0.0031331112
64	0xbb26fe0b	-0.0025481011
65	0x3c45e339	0.0120781
66	0x3bb81194	0.00561733
67	0xbb799650	-0.0038083978
68	0xbbacaec3	-0.0052698567
69	0x3b192fc7	0.0023374425
70	0xbb142e0e	-0.0022610459
71	0xbbfa9e30	-0.007648252
72	0x3a6c2b63	0.00090091507
73	0xbb58154b	-0.0032971676
74	0x3b0da0d3	0.0021610751
75	0xbb9befcf	-0.004758812
76	0x3b244a1f	0.0025068594
77	0x3a517b35	0.00079910766
78	0xbae3cd3a	-0.0017379888
79	0x3b91c57e	0.0044485917
80	0x3c039305	0.008030658
81	0x3bf75af2	0.0075486833
82	0x3b2dded4	0.002653052
83	0xbb06eada	-0.002058676
84	0x3bd24b1d	0.0064176456
85	0xbc106c9c	-0.008814957
86	0x3bc012c4	0.005861612
87	0x3bdecaaa	0.006799062
88	0xbb360cb6	-0.0027778572
89	0xbb3a5aa3	-0.0028435371
90	0x3aa8a516	0.0012866582
91	0xbbb51787	-0.0055264863
92	0x3bab8339	0.005234149
93	0xbc2d8837	-0.010591558
94	0x3c307277	0.010769478
95	0xbb407b43	-0.0029370345
96	0xbb4f3768	-0.0031618718
97	0xbb67c358	-0.0035364237
98	0xbc1d3ae9	-0.009596565
99	0x3a845a43	0.0010097701
100	0x3b926249	0.004467283
101	0x3b9a9328	0.0047172494
102	0x39bde15e	0.000362168
103	0x3bb6ed9f	0.005582526
104	0xbb614c07	-0.0034377591
105	0x3c737abd	0.014860806
106	0x3b26ad50	0.0025432892
107	0xbac8faab	-0.0015333494
108	0x39eec8dd	0.00045544552
109	0x3abd008b	0.0014419717
110	0xbbd7ae1b	-0.0065820343
111	0x3c27d734	0.0102441795
112	0x3b97c6bf	0.0046318467
113	0xbb9c4be8	-0.004769791
114	0xbb762ce0	-0.0037563369
115	0xbc3ce6f5	-0.011529674
116	0xbc4c8874	-0.012483705
117	0x3b8912e0	0.0041831583
118	0x3a7a0a17	0.00095382467
119	0x3b0c84ae	0.0021441388
120	0x3c42303c	0.01185232
121	0x3af886e7	0.0018961102
122	0xbc241b9f	-0.010016351
123	0x3b79aa55	0.003809591
124	0x3c0d2e9f	0.008617072
125	0xbb4ab01b	-0.003092772
126	0x3b1f97ea	0.0024352022
127	0xbbd7ab23	-0.0065816804
128	0xba459b7f	-0.00075381243
129	0x3b160110	0.0022888817
130	0xba87cab3	-0.0010360092
131	0xbbde0b20	-0.0067762285
132	0x3bc97655	0.0061481395
133	0x3ae4d6e2	0.001745906
134	0xbc4d6ed8	-0.012538634
135	0x3b4088ff	0.002937853
136	0xbb600e05	-0.0034188044
137	0xbb0b139f	-0.0021221412
138	0xbb948c35	-0.0045333155
139	0xbb53b033	-0.0032301068
140	0x3a92d893	0.001120346
141	0x3bbc8637	0.0057533043
142	0x3b0cd505	0.0021489274
143	0x3a40c1b7	0.00073530845
144	0xbb9e1857	-0.004824679
145	0xbb3a58b1	-0.0028434212
146	0xbb1d0052	-0.002395649
147	0x3bd52290	0.0065043643
148	0x39fe20e2	0.00048471155
149	0x3be824c7	0.0070844623
150	0xbc18152e	-0.009282393
151	0xbc26b963	-0.010176036
152	0x3bb11395	0.0054039457
153	0xbacaca1e	-0.0015471613
154	0xbb20de93	-0.0024546727
155	0x3bb1c4cf	0.0054250727
156	0x3abaa07b	0.0014238501
157	0x3bca5d0f	0.006175644
158	0x3a4108e3	0.000736369
159	0xbc531aa3	-0.012884769
160	0x3a33a034	0.000685218
161	0x3b8d65f9	0.0043151346
162	0xbb621f83	-0.0034503646
163	0x3b866441	0.0041013067
164	0x3c0fc662	0.0087753255
165	0xbb2ff647	-0.0026849674
166	0x3b039a0b	0.002008083
167	0xbb0fa61e	-0.0021919082
168	0x3be694d2	0.0070367837
169	0xbb84ab43	-0.0040487363
170	0x3b43653c	0.002981498
171	0xbc05616e	-0.008140905
172	0xbc96f047	-0.01842512
173	0x3bbb471b	0.0057152635
174	0xb9e61f78	-0.00043892465
175	0x3c24ef23	0.01006678
176	0xbba043e9	-0.004890908
177	0xbbca2ccb	-0.0061698905
178	0x3bdd3617	0.006750833
179	0xbb66eeef	-0.003523763
180	0x3bf7d003	0.0075626387
181	0xbae6774d	-0.0017583162
182	0xbc0581c0	-0.008148611
183	0xba80c7cb	-0.0009825168
184	0x3ae20183	0.0017242882
185	0xbbb49606	-0.0055110482
186	0x3be5f26a	0.0070174234
187	0x3a6a68ad	0.00089419895
188	0x3983c61d	0.00025133873
189	0x3c4b49ab	0.0124077005
190	0xbb8d5bcb	-0.004313921
191	0x3a9f5963	0.0012157377
192	0xba679bc3	-0.0008835161
193	0xbb9b6635	-0.0047424086
194	0x39ae18f7	0.00033206466
195	0xb88ff910	-6.865163e-05
196	0xbade333b	-0.0016952524
197	0x398687d3	0.0002565967
198	0x3c236bb0	0.009974405
199	0x3b574e8f	0.003285322
200	0xbc1ee1ad	-0.00969736
201	0x39aa58e3	0.00032491153
202	0x3b3a553a	0.0028432147
203	0x3b9b8cac	0.004746994
204	0x3c0c071e	0.008546619
205	0x3b3bc17f	0.0028649268
206	0xbbc04c47	-0.005868468
207	0x3b899a5c	0.0041993093
208	0x3b978e62	0.0046251277
209	0xbbcd4967	-0.0062648538
210	0x3b66f792	0.0035242778
211	0x3c19bd97	0.009383581
212	0x3b4b136a	0.0030986913
213	0xbb90878a	-0.0044106888
214	0xbacff968	-0.0015867176
215	0x3b9c4fdb	0.0047702617
216	0xbbdd4917	-0.0067530978
217	0xbb72856f	-0.0037005802
218	0x3c0dbb87	0.008650667
219	0xbbee3555	-0.0072695413
220	0x3b20c016	0.0024528555
221	0x3a2c4000	0.0006570816
222	0x3c2d74c2	0.010586919
223	0x3b1e926c	0.002419616
224	0x3b1a0911	0.002350394
225	0xbbd8cce0	-0.00661622
226	0xbaae51ce	-0.0013299526
227	0x3ac9ab6b	0.001538617
228	0x3a22f725	0.0006216637
229	0x3c0fa1c6	0.008766597
230	0x3a585098	0.00082517555
231	0xbbd76fa3	-0.0065745874
232	0x3b6e02d0	0.0036317594
233	0x3b841021	0.004030243
234	0x3b92e6af	0.004483066
235	0x3a47e581	0.00076254463
236	0xbab40515	-0.0013734425
237	0x3bee1da7	0.0072667184
238	0x3c522417	0.012825987
239	0x3b9511fb	0.0045492626
240	0xbc1b49dd	-0.00947806
241	0x3c0a6d88	0.008448966
242	0x3ab56446	0.0013839088
243	0xbb8254e6	-0.003977406
244	0xbc834657	-0.016024752
245	0xba92265d	-0.0011150349
246	0x3a00fd27	0.0004920535
247	0xbac15497	-0.0014749941
248	0x3bfed6f0	0.0077770874
249	0xbbc1e228	-0.0059168525
250	0x3c0281a2	0.007965477
251	0xbc293ecc	-0.010329913
252	0x3c1a544b	0.009419511
253	0x3b859e4e	0.0040777093
254	0x3c03431f	0.008011608
255	0xbb00af5b	-0.001963577

action_model._discrete_distribution.branches.1.bias f4 [3]
0	0xbc18b695	-0.009320875
1	0x3bd1aea1	0.006398991
2	0x3b8cb780	0.004294336

action_model._discrete_distribution.branches.1.weight f4 [3, 256]
0	0x3d101b8f	0.035182532
1	0x3c1669c7	0.009180493
2	0xbc943346	-0.018090855
3	0x3c23f489	0.010007032
4	0x3c49b75e	0.012311785
5	0xbb224ffc	-0.0024766913
6	0x3d603fe3	0.054748427
7	0x3ccc9b05	0.024976263
8	0x3c9ca823	0.019123143
9	0x3cca7481	0.024713757
10	0x3c0de799	0.008661174
11	0xbc9e4d3a	-0.019323934
12	0x3cc7c5f8	0.024386391
13	0x3c59f84d	0.013303828
14	0x3d4a85e6	0.0494441
15	0x3c183c8f	0.009291782
16	0xbc70ca53	-0.014696675
17	0x3c53688b	0.012903343
18	0x3bfc5f68	0.007701803
19	0x3cd0b754	0.025478043
20	0x3cbc9ae3	0.023023074
21	0x3b750583	0.0037387318
22	0x3c82b48c	0.015955232
23	0xbbf6421e	-0.007515206
24	0xbc212bd3	-0.009837109
25	0x3afaa982	0.0019124004
26	0xbc921b87	-0.017835392
27	0x3cd0e807	0.025501264
28	0x3c801396	0.01563434
29	0x3b082df7	0.002077935
30	0xbc662f75	-0.014049401
31	0x3cb062f5	0.021531561
32	0x3c075c90	0.008261815
33	0x3d0f936f	0.035052713
34	0xbcabe34d	-0.020982409
35	0xbc3373f6	-0.01095294
36	0xbb6f2cbd	-0.0036495172
37	0x3b898cf5	0.0041977116
38	0x3c97d31a	0.018533278
39	0xbc5c8eda	-0.013461793
40	0x3cb44888	0.022007242
41	0xbc21e7fc	-0.00988197
42	0xbca03ca9	-0.019560175
43	0x3ce96c35	0.02849398
44	0x3d11fe9d	0.03564321
45	0x3bb277c7	0.0054464075
46	0x3ca6d53b	0.020365348
47	0x3ab42662	0.0013744349
48	0x3a140003	0.00056457537
49	0x3bf3dd3e	0.0074421456
50	0xbc49a1ea	-0.01230667
51	0x3c27952c	0.010228436
52	0xbd29cb7a	-0.041453816
53	0xbc16213a	-0.009163195
54	0x3cc8b9d3	0.02450267
55	0x3cd9a10f	0.026566057
56	0x3d1d2b73	0.038371515
57	0xbc28ae45	-0.010295455
58	0x3d28fdf0	0.0412578
59	0x3d19b7f7	0.03752896
60	0x3d16727d	0.03673028
61	0x3c807ebf	0.015685437
62	0x3ca6dc19	0.020368623
63	0xbbff1df8	-0.007785555
64	0x3c69e3db	0.014275516
65	0xbcb97afd	-0.022641653
66	0x3cc07739	0.02349435
67	0xbc927544	-0.017878182
68	0xbd147062	-0.03623999
69	0x3c0c83ed	0.008576375
70	0x3c6ab66e	0.014325721
71	0xbc613538	-0.0137455985
72	0xbb820561	-0.0039679264
73	0xbcc9d995	-0.024639884
74	0xbbb04e2c	-0.0053804126
75	0xbc2acec1	-0.010425271
76	0xbbb809af	-0.0056163887
77	0xba905389	-0.0011011224
78	0x3cb3758c	0.021906637
79	0xbb12d0a7	-0.0022402199
80	0xbc75776f	-0.0149820885
81	0xbcff05d5	-0.03113071
82	0x3c149578	0.009068839
83	0xbbc18119	-0.005905282
84	0xbbe116a7	-0.0068691554
85	0x3c8d2d2d	0.017233456
86	0x3c995313	0.01871637
87	0x3c85bafe	0.016324516
88	0x3ca554f2	0.020182107
89	0x3a154829	0.00056946516
90	0x3b9a6c4f	0.0047126184
91	0xbbc35a1b	-0.005961669
92	0xbb99c3d1	-0.0046925326
93	0xbc5526ee	-0.01300977
94	0xbc411020	-0.01178363
95	0x3c4e85d2	0.012605147
96	0xbbcbc003	-0.006217958
97	0xbcb7c29b	-0.022431662
98	0x3c494878	0.012285344
99	0x3cef4edf	0.029212413
100	0x3c9c2b41	0.019063594
101	0xba8916ad	-0.0010459028
102	0x3c8e5a7c	0.01737713
103	0xbcf7e07f	-0.030258415
104	0xbbc5ba12	-0.006034144
105	0x3c349a20	0.011023074
106	0x3b8657cf	0.004099823
107	0x3ce0d395	0.02744464
108	0x3c70f7b0	0.014707491
109	0x3c8ea572	0.017412875
110	0x3c8693cf	0.016427903
111	0xbc0fcd59	-0.008776986
112	0x3d0e3db7	0.034726825
113	0x3c72bd0f	0.014815583
114	0x3d1f3bf5	0.03887554
115	0x3ccfd3ea	0.025369603
116	0x3c6e5df6	0.014548769
117	0x3b8182c4	0.003952356
118	0x3bbd21c6	0.0057718484
119	0xba90fa22	-0.0011060874
120	0x3b50f746	0.0031885668
121	0xbc238256	-0.009979805
122	0xbb0932da	-0.002093485
123	0x3b89b6a8	0.0042026825
124	0xbcc19410	-0.023630172
125	0x3d0031ef	0.03129762
126	0x3c587d42	0.013213458
127	0x3c30e094	0.010795731
128	0xbc6e1563	-0.014531466
129	0x3b011687	0.0019697265
130	0x3b56e57a	0.0032790587
131	0x3d2af879	0.04174087
132	0xbb9bb89b	-0.0047522313
133	0xbb60c178	-0.0034295004
134	0x3cca8075	0.024719456
135	0x3b0aeeed	0.002119954
136	0xbd4779b6	-0.048700057
137	0x3c8d39f8	0.017239556
138	0xbcb6b221	-0.022301735
139	0xbd002b38	-0.031291217
140	0xbade0caa	-0.001694103
141	0x3c7d7b4e	0.015471293
142	0x3cc51b8d	0.024060989
143	0x3d5cf8e9	0.053948317
144	0x3c3cdaa3	0.011526736
145	0x3c83f188	0.016106382
146	0xbd4095f9	-0.047018025
147	0xbcd200b3	-0.025635099
148	0x3d53619f	0.05160677
149	0x3c8cb34a	0.017175335
150	0x3d0c29e1	0.034219626
151	0xbbe09abd	-0.0068543837
152	0x3ac64616	0.0015127088
153	0x3d023f71	0.031798784
154	0x3c8efd68	0.017454818
155	0xbbdcc598	-0.006737422
156	0x3a9429b5	0.0011303934
157	0x3cc9f9e5	0.024655292
158	0x3c937e71	0.018004628
159	0xbcfb9ac1	-0.03071344
160	0x3ccea944	0.025227197
161	0xbd42fb56	-0.047602974
162	0x3c207c56	0.009795269
163	0x3c655a91	0.0139986435
164	0x3b948192	0.0045320475
165	0xbb7478aa	-0.0037303367
166	0x3cbc888a	0.023014326
167	0xbd7146a1	-0.058905248
168	0xb9e52b6c	-0.00043710636
169	0x3bd0aca0	0.0063682348
170	0x3c5ce9ba	0.013483459
171	0x3c0351db	0.008015121
172	0x3bca4447	0.00617269
173	0xbc876072	-0.01652548
174	0x3cdad518	0.02671294
175	0x3a444460	0.00074869953
176	0xbbd2b164	-0.006429838
177	0x3cb32f69	0.021873193
178	0xbc88de11	-0.016707452
179	0x3bfec316	0.007774721
180	0x3b98a461	0.0046582674
181	0x3be131ca	0.0068723904
182	0xbc9456a2	-0.018107716
183	0xbacad77f	-0.00154756
184	0xbc4bb43c	-0.012433108
185	0xbd3d97c9	-0.04628733
186	0x3d84a8aa	0.064774826
187	0x3cc833b4	0.024438716
188	0xbd3324fd	-0.043736447
189	0xbbfcec8c	-0.0077186283
190	0x3d2ae521	0.04172242
191	0x3d12d408	0.03584674
192	0xb77c5309	-1.5039704e-05
193	0x3c022e67	0.0079456335
194	0x3c803f79	0.015655266
195	0x3c1a40fa	0.009414906
196	0xbb6af830	-0.0035853498
197	0x3c4276b0	0.011869118
198	0x3c4c8954	0.012483913
199	0xbc0f2580	-0.008736968
200	0xbc5b9b8b	-0.013403784
201	0x3c2ef627	0.0106788045
202	0x3c33e112	0.010978954
203	0x3cc3847e	0.023866888
204	0x3caf6586	0.021410715
205	0x3c7573df	0.014981239
206	0xbc0dd4f0	-0.008656725
207	0x3c1c7858	0.009550177
208	0xbc0f4bd3	-0.008746105
209	0xbcc3002d	-0.023803795
210	0xbb947988	-0.004531089
211	0x3cbdf92c	0.023190103
212	0x3d067843	0.032829534
213	0xbbc64fc8	-0.006051991
214	0x3b44bfcf	0.0030021553
215	0xbb7b80eb	-0.0038376402
216	0xbca6d27a	-0.020364035
217	0x3c9c1579	0.019053208
218	0x3c2c4471	0.010514365
219	0x3c34d688	0.011037476
220	0x3c87c2e0	0.016572416
221	0x3a4b1436	0.0007746847
222	0x3c863c9a	0.016386319
223	0x3c4cdd6d	0.012503964
224	0xbd19c249	-0.0375388
225	0x3be7caac	0.007073721
226	0xbbf022af	-0.0073283534
227	0x3bcd029f	0.006256416
228	0xba8ae6ab	-0.0010597309
229	0x3bb64efe	0.005563616
230	0xbb00c71e	-0.0019649933
231	0x3bf40cd5	0.0074478188
232	0x3c31e6df	0.010858267
233	0xbc95b4c6	-0.018274676
234	0x3d03932f	0.032122787
235	0xbc01ee3f	-0.007930337
236	0x3c8ac98c	0.016941808
237	0x3c4d9bc1	0.012549342
238	0x3ca3d4ac	0.01999887
239	0xbb0dbfe2	-0.0021629264
240	0x3c4d3055	0.01252373
241	0xbc8b7bc6	-0.017026793
242	0x3c07582b	0.008260767
243	0xbc253448	-0.010083266
244	0xbbdd8674	-0.006760413
245	0xbb941edc	-0.0045202803
246	0x3c7b9db1	0.015357421
247	0x3c8b3f6b	0.016998013
248	0xbaf7c4d3	-0.0018903263
249	0xbc603b68	-0.013686039
250	0x3d18af8a	0.037276782
251	0x3c4a56fb	0.012349839
252	0x3c6e7f67	0.014556742
253	0xbc80594e	-0.015667584
254	0x3b9fea2c	0.0048802104
255	0x3c76140f	0.015019431

action_model._discrete_distribution.branches.2.bias f4 [3]
0	0x3b3743dc	0.0027964031
1	0xbbd21322	-0.006410972
2	0x3bd72f07	0.0065668854

action_model._discrete_distribution.branches.2.weight f4 [3, 256]
0	0xbad6935f	-0.0016370824
1	0x3a204c48	0.00061148824
2	0xbdbb6565	-0.09150199
3	0xbb65200c	-0.0034961728
4	0x3cb48163	0.022034353
5	0x3ba8a3c5	0.005146476
6	0xbbad28eb	-0.005284419
7	0xbb53f022	-0.0032339175
8	0xbdb7efc0	-0.089812756
9	0xbc754f0f	-0.014972462
10	0xbc871d60	-0.0164935
11	0x3c2556c6	0.010091489
12	0x3be8ab7c	0.0071005207
13	0xbcd7baa2	-0.02633411
14	0xba8e97da	-0.0010878996
15	0xbca774aa	-0.020441372
16	0x3b0fd3c5	0.0021946293
17	0x3caa354e	0.02077737
18	0xbcd2b7d9	-0.025722431
19	0x3b83bf6f	0.0040206234
20	0x3d458604	0.04822351
21	0xbd01f1a2	-0.03172458
22	0xbbca824a	-0.0061800824
23	0xbb118811	-0.0022206346
24	0xbcc783fc	-0.024354927
25	0xbc3c45b4	-0.011491228
26	0x3c0d16f1	0.008611427
27	0x3c7c0385	0.0153816985
28	0x3c276bd3	0.010218578
29	0xbc03bcb3	-0.008040595
30	0x3c98e576	0.018664103
31	0x3b10769c	0.0022043353
32	0x3b23ff65	0.0025024053
33	0x3cf68dd2	0.030096922
34	0xbc4ad76a	-0.01238046
35	0xbd1984fa	-0.037480332
36	0xbdae8b8c	-0.0852271
37	0x3bd73990	0.0065681413
38	0xbc9c7197	-0.019097133
39	0xbcf0f4a6	-0.029413532
40	0x3d5cdd7c	0.05392216
41	0xbb72973c	-0.0037016412
42	0x3b6f7560	0.0036538467
43	0x3ce0fa6e	0.027463164
44	0x3c79443c	0.015214022
45	0x3c23ee24	0.010005508
46	0xbd480b2e	-0.048838787
47	0x3c639d3f	0.013892471
48	0xbc852427	-0.01625259
49	0x3ce0bd51	0.027434023
50	0xbb8c60fa	-0.0042840214
51	0xbb9abee8	-0.004722465
52	0x3cff3399	0.031152533
53	0x3a932b11	0.0011228045
54	0x3d246c7c	0.04014252
55	0x3cec7150	0.028862625
56	0xbba941d8	-0.00516532
57	0xbc259fe2	-0.01010892
58	0x3b28dcb0	0.0025766306
59	0xbbf36636	-0.007427956
60	0xbd213b7a	-0.039363362
61	0x3c475763	0.012166831
62	0xbd966684	-0.07343772
63	0xbbe4d51a	-0.0069834115
64	0x3c4e13ec	0.012577992
65	0x3cc61e31	0.024184318
66	0xbbe0e109	-0.006862764
67	0xbd1ba8a5	-0.03800263
68	0xbd8fc188	-0.07019335
69	0xbb251b77	-0.0025193372
70	0xbc435ebc	-0.011924442
71	0xbc3ed43d	-0.011647281
72	0x3bf0f284	0.007353129
73	0xbc3c239e	-0.011483101
74	0x3c53083a	0.012880379
75	0xbc3e88f1	-0.011629329
76	0xbc0325a4	-0.00800458
77	0xbbde4ce2	-0.0067840675
78	0x3a274b6a	0.0006381782
79	0xbc2fa8bc	-0.010721382
80	0x3caec570	0.02133438
81	0x3cc89644	0.024485715
82	0x3bb1b2f3	0.0054229437
83	0xbc981cbf	-0.018568395
84	0x3c6c8743	0.014436546
85	0xbbfcbdd8	-0.007713061
86	0xbc5d2e7a	-0.01349985
87	0xbb4032f4	-0.0029327245
88	0x3d3c0d5d	0.04591118
89	0xbdb25755	-0.087080635
90	0xbcb9cd1e	-0.022680815
91	0xbd3a39fd	-0.04546546
92	0x3aa475fa	0.0012547367
93	0xbcc78143	-0.024353629
94	0x3c0d09d8	0.008608304
95	0x3cd88ce1	0.026434364
96	0xbc8fd9b5	-0.017559865
97	0xbc9e5246	-0.01932634
98	0xbc2b2686	-0.010446196
99	0x3ac78d67	0.0015224636
100	0x3d1f9107	0.03895667
101	0xbd0113be	-0.03151297
102	0xbbb78f33	-0.0056017875
103	0x3bf87770	0.0075825974
104	0x3b38cc03	0.0028197772
105	0x3c0206fd	0.007936236
106	0xbc5836aa	-0.013196627
107	0xbbc96757	-0.0061463523
108	0xbb9d6f8c	-0.004804557
109	0xbc27e42d	-0.010247272
110	0x3b9536ce	0.0045536524
111	0xba7036ac	-0.000916342
112	0x3ca23613	0.019801175
113	0x3c0f4989	0.0087455595
114	0xbd67ad6a	-0.056561865
115	0x3c0194dc	0.007909026
116	0x3cf0244d	0.029314185
117	0xbbc5045f	-0.006012484
118	0x3b5f8b96	0.00341103
119	0x3d25e290	0.04049927
120	0xbc703355	-0.014660676
121	0x3cbcf767	0.02306719
122	0xbbf13ccb	-0.0073619834
123	0xbc094ce6	-0.00838015
124	0xbd8ecd0d	-0.06972704
125	0x3c9c0311	0.01904443
126	0xbd7290cb	-0.059220117
127	0x3b2ddd7e	0.0026529725
128	0xbd2092ec	-0.039202616
129	0xbdaa52b0	-0.08316553
130	0xbba12203	-0.0049173846
131	0x3d097210	0.033556044
132	0x3cf2836e	0.029603686
133	0xbc37e509	-0.01122404
134	0xbbd0e3f1	-0.006374829
135	0x3c8fa036	0.01753245
136	0x3d8dcf10	0.0692426
137	0xbc4654cc	-0.012105178
138	0xbb31f436	-0.0027153618
139	0x3d285c07	0.04110339
140	0x3c19fa8e	0.009398116
141	0x3d1f9b0a	0.038966216
142	0xbcb90154	-0.022583641
143	0x3be8beb3	0.0071028112
144	0x3abc786d	0.0014379151
145	0x3b68dfdd	0.0035533824
146	0x3c5830d6	0.013195237
147	0xbcb7f6fb	-0.022456637
148	0xbbb08073	-0.005386406
149	0x3becd263	0.0072272285
150	0xbbd5ffb5	-0.006530727
151	0xbbdea8f8	-0.006795045
152	0xbc7b13e2	-0.015324565
153	0xbc369444	-0.011143748
154	0x3cf70bc6	0.030156981
155	0xbcccd8a2	-0.025005642
156	0x3ca0e8b9	0.01964222
157	0x3cb4511d	0.022011334
158	0xbba97b73	-0.005172187
159	0x3ce9d7c5	0.02854527
160	0xbd12fff3	-0.035888623
161	0xbe13373b	-0.14376538
162	0xbca31e0e	-0.019911792
163	0x3cac7ce3	0.021055644
164	0x3c096273	0.0083852885
165	0x3c37aa5b	0.0112100495
166	0x3c67dfb7	0.014152459
167	0xbbb2e741	-0.0054596965
168	0xbd7beeaf	-0.061506923
169	0xbbafc3d7	-0.005363922
170	0x3a030e61	0.0004999396
171	0xbd6eced6	-0.058302723
172	0x3cac0f91	0.021003516
173	0x3c16e929	0.009210863
174	0x3cc7c258	0.024384663
175	0xbc8f8eac	-0.017524086
176	0x3c95902c	0.018257223
177	0x3c925c0d	0.017866159
178	0x3bb4c0d7	0.0055161524
179	0x3d3118d5	0.043236572
180	0x3bbe1f2b	0.0058020554
181	0x3d3b1d14	0.045682028
182	0x3c80ca1d	0.015721375
183	0x3c6905a3	0.014222535
184	0xbcc203db	-0.023683479
185	0x3ca82f9f	0.02053052
186	0xbbcd33cb	-0.0062622777
187	0xbcbe0e55	-0.023200193
188	0x3c0cd78b	0.008596311
189	0xbdaebde4	-0.085323125
190	0x3c226f80	0.009914279
191	0xba85cc2f	-0.0010207946
192	0xbc9912be	-0.018685695
193	0x3bc6858b	0.0060584
194	0xbc23c8b4	-0.009996582
195	0x3cb48f48	0.022040978
196	0x3c83ab23	0.016072815
197	0x3c2dce2c	0.010608237
198	0xbc37a937	-0.011209778
199	0x3b0a469c	0.0021099215
200	0xbbb760cf	-0.0055962573
201	0xbd826e7e	-0.06368731
202	0x3c93b5c2	0.018031005
203	0x3b5ab71c	0.0033373302
204	0x3c7b6d39	0.015345865
205	0x3c6ee58a	0.014581094
206	0xb7b81100	-2.1942426e-05
207	0x3c30e9de	0.010797946
208	0x3cca7b7b	0.024717083
209	0xbdea4bce	-0.1144024
210	0x3c8b2e1a	0.016989756
211	0x3c167b69	0.009184697
212	0x3ac1021c	0.001472536
213	0xbc9e3a1c	-0.019314818
214	0x3b367054	0.002783795
215	0xbd110199	-0.035401914
216	0x3c19cc76	0.009387126
217	0x3d28bb4b	0.04119424
218	0x3ca655fe	0.020304676
219	0xbbfc34a9	-0.0076967073
220	0x3c9c8647	0.019106997
221	0x3c839fe2	0.016067449
222	0x3c03c0ad	0.008041543
223	0xbc143c72	-0.009047614
224	0x3d858d5f	0.06521105
225	0x3b8ded87	0.004331294
226	0xbc7de011	-0.015495316
227	0x3a9071fc	0.0011020298
228	0x386ab17b	5.595524e-05
229	0x3c2e5164	0.010639522
230	0x3cbdedb3	0.023184633
231	0xbbb46fee	-0.005506507
232	0x3b577f38	0.0032882225
233	0xbd7cdc1b	-0.061733346
234	0x3cfb612e	0.030685987
235	0x3d172e35	0.0369093
236	0x3c838d62	0.016058628
237	0xbbef1528	-0.007296223
238	0x3c8930b7	0.016746862
239	0xbb330abb	-0.0027319628
240	0xbb6f74f5	-0.0036538218
241	0x3c45bc51	0.012068824
242	0x3c8126a9	0.015765505
243	0xbd044efe	-0.032301895
244	0xbd448eed	-0.047987867
245	0xbc28d985	-0.010305767
246	0x3bd00ca9	0.0063491655
247	0xbcd86671	-0.026416035
248	0x3c8d7d8a	0.017271776
249	0x3d065c9c	0.032803163
250	0x3ccd5181	0.025063278
251	0xbdaa85e6	-0.0832632
252	0xbdbc17cc	-0.091842264
253	0x3b729872	0.0037017134
254	0x3b959559	0.004564923
255	0x3ced56ba	0.028972019

discrete_action_output_shape f4 [1, 3]
0	0x3f800000	1.0
1	0x40400000	3.0
2	0x40400000	3.0

network_body._body_endoder.seq_layers.0.bias f4 [256]
0	0x3c974dcd	0.018469715
1	0xbd1df28b	-0.038561385
2	0x3c822799	0.015888022
3	0xbc8280de	-0.01593059
4	0x3d08f7e9	0.03343955
5	0xbd1be66d	-0.038061548
6	0x3d27dfcb	0.04098491
7	0xbc41dae7	-0.011831976
8	0x3c18ed58	0.009333931
9	0x3a18d1bd	0.0005829593
10	0xbcd9befa	-0.026580323
11	0xbad6a22e	-0.0016375238
12	0xbc1e11bb	-0.009647782
13	0xbb453709	-0.0030092618
14	0x3d00a5ee	0.031408243
15	0xbd0aee38	-0.03391859
16	0x3d29e416	0.041477285
17	0xbc1b647f	-0.009484409
18	0xbd2e396e	-0.042535238
19	0xb8850a3d	-6.343841e-05
20	0x3c75fc0d	0.015013707
21	0xbcad053b	-0.021120658
22	0xbc7a4982	-0.015276315
23	0xbccda00a	-0.025100727
24	0xbd161ab2	-0.036646552
25	0xbc863b36	-0.016385656
26	0xbc101182	-0.008793237
27	0xbd020bc0	-0.031749487
28	0xbc3be9e0	-0.011469334
29	0xbc1250b6	-0.008930376
30	0xbc29f0b7	-0.010372332
31	0xbd085aa8	-0.03328958
32	0xbc7d8672	-0.015473949
33	0xbba08c94	-0.0048995707
34	0xbbe6a4ae	-0.0070386743
35	0x3aeeeba2	0.0018228183
36	0xb976b85f	-0.00023529072
37	0xbc8201d1	-0.015870007
38	0x3d04afd3	0.03239424
39	0xbc88000e	-0.016601589
40	0xbbe24e9f	-0.006906345
41	0xbc63932b	-0.013890068
42	0x3b284a70	0.0025679134
43	0xbb1ff6f5	-0.0024408672
44	0x3c8e18fc	0.017345898
45	0x3baf9af5	0.0053590485
46	0xbb92bc75	-0.0044780322
47	0xbce63798	-0.028102681
48	0x3b0125a5	0.0019706276
49	0x3d681ba2	0.056666978
50	0xbce4b2d4	-0.027917303
51	0xbcf57761	-0.02996415
52	0x3cd10447	0.025514735
53	0xbc6503fc	-0.013978001
54	0x3b419fb7	0.002954466
55	0x3b86e2e5	0.0041164034
56	0x3c6049f9	0.013689511
57	0xbb7d35c4	-0.0038636783
58	0x3cb81573	0.022471165
59	0x3bafc619	0.0053641913
60	0xba3658be	-0.00069559726
61	0xbbf7b836	-0.0075598015
62	0x3d96b47a	0.07358642
63	0xbcb4e877	-0.022083504
64	0xbcc5b629	-0.024134712
65	0x3ce245e9	0.027621226
66	0x3a10fbd2	0.0005530688
67	0x3bd03d9c	0.0063550007
68	0x3c448105	0.011993651
69	0xbc8c88a9	-0.017155008
70	0xbd0c6eaa	-0.034285225
71	0xbc776221	-0.015099079
72	0x3ce8dbdc	0.02842515
73	0x3cc0b9f0	0.023526162
74	0xbb3fa1d2	-0.002924074
75	0x3b1e9a61	0.0024200904
76	0xbc9d2144	-0.019180901
77	0xbd318da1	-0.04334796
78	0xbbe0c6e7	-0.0068596485
79	0xbb91f220	-0.0044539124
80	0x3c9b2a30	0.018941015
81	0x3d49edd4	0.049299076
82	0xbd11f659	-0.035635326
83	0xbbb06ba4	-0.0053839255
84	0x3d36a3b1	0.044589702
85	0xbc4fcade	-0.012682645
86	0xbc06f041	-0.008235992
87	0xbba7a909	-0.005116586
88	0x3d1340a9	0.035950337
89	0x3d1a29d8	0.03763756
90	0xbbd96372	-0.0066341693
91	0xbb94356b	-0.0045229695
92	0xbcc5f211	-0.024163278
93	0xbc8f11db	-0.017464569
94	0xbcc6be0a	-0.02426054
95	0xbca99bf8	-0.020704255
96	0xbd332ba4	-0.04374279
97	0x3d189800	0.037254333
98	0xbc305c4d	-0.010764194
99	0xbc5bf06a	-0.013424018
100	0x3c969989	0.018383758
101	0xbbfebe28	-0.0077741332
102	0xbc09e56e	-0.008416517
103	0x3ce38e50	0.02777782
104	0xbcb45eca	-0.022017855
105	0x3d04aeda	0.032393314
106	0xbc866bcd	-0.016408825
107	0xbc8b7d5d	-0.017027551
108	0xbc8930ba	-0.016746867
109	0xbcbab26d	-0.022790158
110	0xbca55a19	-0.020184563
111	0xbc3c3ad2	-0.011488633
112	0xbc9a2315	-0.018815557
113	0xbc98ced5	-0.018653313
114	0x3c8e3790	0.017360479
115	0xbcad5166	-0.021156978
116	0x3b8bd625	0.0042674714
117	0x3b7d2e6f	0.0038632413
118	0xbcf6a60a	-0.03010847
119	0x3c15d512	0.009145038
120	0xbcd5d17b	-0.026100865
121	0x3b2cd94f	0.0026374643
122	0xbd34abc8	-0.044109136
123	0xbd001c29	-0.031276856
124	0x3aea0167	0.0017853201
125	0xbbab1a8f	-0.005221672
126	0xbc1d45c8	-0.009599157
127	0xbc2315bb	-0.009953911
128	0x3d0ccde8	0.034376055
129	0x3918c6c6	0.00014569898
130	0xbcb820f7	-0.022476656
131	0x3c2af7d9	0.010435068
132	0x3d124e9a	0.03571949
133	0xbd4ac46f	-0.04950374
134	0xbb8eab71	-0.0043539335
135	0xbcb2b31c	-0.021813922
136	0x3cfaa3f2	0.030595753
137	0xbbb2d49d	-0.0054574744
138	0xbbaa7e9e	-0.005203082
139	0x3d731dde	0.059354655
140	0xbd15ef52	-0.036605187
141	0x3cd8d15f	0.026467023
142	0xbc0ba83b	-0.008523996
143	0xbb47ab52	-0.0030467105
144	0xbcb46c08	-0.02202417
145	0xbcba613f	-0.022751449
146	0x3d201d40	0.039090395
147	0x3c13ce6c	0.009021383
148	0x3d0ab83b	0.033867102
149	0xbc5cb48a	-0.013470778
150	0x3c42c5bb	0.011887963
151	0xbd3495b9	-0.0440881
152	0xbc828a30	-0.015935034
153	0xbc288d28	-0.0102875605
154	0x3d03b5cb	0.032155793
155	0xbc9ab587	-0.018885387
156	0xbc2c9101	-0.0105326185
157	0xbc9ff322	-0.019525114
158	0xbd09b329	-0.033618126
159	0x3bd5fe11	0.006530531
160	0xbbbcb264	-0.0057585705
161	0x3d99acf1	0.07503689
162	0xbcaf848b	-0.021425506
163	0xbca192e9	-0.019723373
164	0xbce510f6	-0.02796219
165	0xbcb6f025	-0.022331307
166	0x3b80ce1d	0.0039308206
167	0x3ca7f0fa	0.020500649
168	0x3c58fd46	0.013243979
169	0x3c82fd1f	0.015989838
170	0xbceb1a07	-0.028698934
171	0x3d21748a	0.03941778
172	0xbc2ea4e7	-0.010659433
173	0x3d4e4e93	0.050367903
174	0x3c8efdb4	0.01745496
175	0xbc8686b7	-0.016421659
176	0x3d4b730a	0.049670257
177	0xbd118bcc	-0.03553371
178	0x3cd9f898	0.026607797
179	0x3d807435	0.06272165
180	0x38e368ff	0.000108437605
181	0x3b51e16b	0.0032025229
182	0xbc4fb2ca	-0.012676904
183	0x3d12ecba	0.03587029
184	0xbcf14fb6	-0.029456954
185	0x3c9e88bc	0.01935231
186	0x3bbcb7c6	0.005759212
187	0xba8d0523	-0.0010758977
188	0x3c8039c7	0.01565255
189	0x3c9db680	0.019252062
190	0x3c257c84	0.010100488
191	0x3be6d7c9	0.0070447666
192	0x3ca82ed9	0.020530151
193	0xbcf58214	-0.029969253
194	0xbc1b06fb	-0.0094621135
195	0xbc85a7f0	-0.01631543
196	0xbc763101	-0.015026332
197	0x3b9f2244	0.0048563797
198	0xbb173bfc	-0.0023076525
199	0xbc671e09	-0.014106282
200	0xbce0ebcf	-0.027456192
201	0xbb4d4574	-0.0031321915
202	0xbcedca2e	-0.02902707
203	0xbc98b782	-0.01864219
204	0xbc0fd3b6	-0.008778503
205	0xbc59b54c	-0.013287853
206	0xbd29698c	-0.041360423
207	0xbd01184f	-0.031517323
208	0x3c27ff85	0.010253792
209	0x3cbfed0b	0.02342846
210	0xbca1fffe	-0.019775387
211	0xbc3b0970	-0.011415824
212	0xbbfa2c44	-0.0076346714
213	0xbd0c7f36	-0.034301005
214	0xbd08a93b	-0.033364516
215	0xbcb83f94	-0.022491254
216	0x3d0a6f83	0.033797752
217	0x3cf7f063	0.030265993
218	0xbcf6ef82	-0.030143503
219	0xbd603b5a	-0.054744102
220	0x3ce97c87	0.028501762
221	0xbb07f974	-0.002074805
222	0xbcb44374	-0.02200482
223	0x3a7f6e17	0.00097438827
224	0x3d379fd8	0.044830173
225	0xbce2b4d7	-0.027674122
226	0xbb92afa5	-0.004476505
227	0xbcba65a2	-0.02275354
228	0xbd1da31a	-0.038485624
229	0xbd4c4b60	-0.04987657
230	0x3cb1c28e	0.021699216
231	0xbc964ad7	-0.018346233
232	0xbccce412	-0.025011096
233	0x3c3d6d6d	0.011561734
234	0x3d4f3ae2	0.050593264
235	0x3d401c19	0.046901796
236	0xbc8f0bec	-0.01746174
237	0xbd18cc33	-0.037304115
238	0x3a2de812	0.00066340074
239	0xbcc8c20e	-0.024506595
240	0x3c0c1a16	0.008551141
241	0x3a87f226	0.0010371848
242	0xbba0ff1a	-0.004913223
243	0x3bd510ad	0.006502232
244	0x3c714842	0.0147267
245	0x39a6e9b6	0.00031836116
246	0xbc4c9bb3	-0.012488293
247	0x3b019778	0.001977412
248	0x3d69ca60	0.057077765
249	0x3a44368b	0.0007484934
250	0x3c7d3403	0.015454295
251	0x3b19984b	0.002343672
252	0x3c2f5cff	0.010703324
253	0xbc5ad06c	-0.013355356
254	0x3cac3b10	0.021024257
255	0x3a11563d	0.00055441615

network_body._body_endoder.seq_layers.0.weight f4 [256, 97]
0	0xbb2c408b	-0.0026283588
1	0xbde8c220	-0.113651514
2	0x3dee30a3	0.116303705
3	0x3d0dc651	0.034612957
4	0x3de64617	0.11243837
5	0x3e682365	0.22669752
6	0x3da264d3	0.07929387
7	0xbdf422d4	-0.119207054
8	0xbd74e11b	-0.05978499
9	0xbddf1db9	-0.10894341
10	0xbdb7d8c2	-0.0897689
11	0x3e9719dc	0.29511917
12	0x3d812ec1	0.06307746
13	0xbda6e10e	-0.081483945
14	0x3dd4cb60	0.10390353
15	0x3d1dc98b	0.038522284
16	0x3c4985f2	0.012300001
17	0x3d976666	0.07392578
18	0x3bd92b10	0.006627448
19	0x3d568f3e	0.0523827
20	0x3e0a5a2a	0.13510957
21	0xbc73dc9d	-0.014884141
22	0x3e3ae710	0.18252206
23	0x3bc2cb50	0.005944647
24	0xbc26a6b4	-0.010171581
25	0x3dbe7256	0.092991516
26	0x3cad0856	0.021122139
27	0xbe092d8a	-0.13396278
28	0xbd1b8dfe	-0.03797721
29	0xbc25fe2a	-0.010131398
30	0x3e3412d7	0.17585312
31	0x3e0d1763	0.13778453
32	0x3e041e75	0.12902243
33	0x39dd1f1c	0.00042175583
34	0x3d34c70f	0.04413515
35	0xbd18efac	-0.037337944
36	0x3dd33888	0.10313517
37	0xbd54eb8d	-0.05198245
38	0xbdfa337c	-0.12216851
39	0x3d8d5254	0.069004685
40	0xbe1012e7	-0.1406971
41	0x3e279a37	0.16367422
42	0x3e12bd6b	0.1433007
43	0xbd665115	-0.05622967
44	0xbcaf1941	-0.021374347
45	0x3e1a96e7	0.15096627
46	0x3c06e864	0.008234117
47	0x3d27cc5b	0.040966373
48	0x3c06ad0b	0.008219968
49	0x3e3053c1	0.1721945
50	0x3d502840	0.050819635
51	0xbe0db8d1	-0.13840033
52	0x3e265b05	0.16245659
53	0xbd41c7c1	-0.04730964
54	0x3ddda6f7	0.10822862
55	0x3e21b98e	0.1579344
56	0x3d023665	0.031790156
57	0xbd8f2a4c	-0.06990489
58	0x3d99883e	0.07496689
59	0xbda9c8ca	-0.082902506
60	0x3e583f5e	0.21117923
61	0xbcbbec36	-0.022939783
62	0xbd6dc5d3	-0.058049988
63	0xbd195f52	-0.03744442
64	0xba01bd04	-0.0004949125
65	0x3d150643	0.036382925
66	0xbcc3ab8f	-0.023885516
67	0x3e63f99c	0.22263187
68	0xbd69c2dd	-0.0570706
69	0x3c8e4719	0.017367886
70	0xbde593c2	-0.11209823
71	0x3d8aae40	0.06771517
72	0xbc1af6aa	-0.009458223
73	0xbd9dcadb	-0.07704707
74	0xbe87fe69	-0.26561287
75	0x3b5f937d	0.003411501
76	0xbdaef823	-0.08543422
77	0xbe623bc2	-0.22093108
78	0x3e83d363	0.25747213
79	0xbdaa246d	-0.08307729
80	0x3e1a0fdc	0.15045112
81	0x3e2a12a6	0.16608676
82	0x3e27c2cf	0.16382907
83	0xbe0f6bb2	-0.14005926
84	0x3dab088b	0.08351239
85	0xbdb85c94	-0.09002033
86	0xbde8e62c	-0.11372027
87	0xbc4347d3	-0.01191898
88	0x3df4a87e	0.119462
89	0x3d89a1ca	0.06720312
90	0xbdbc5667	-0.091961674
91	0xbe0360d7	-0.1282991
92	0x3d23898f	0.039926108
93	0xbc05af31	-0.008159445
94	0x3d85f37b	0.06540581
95	0xbe1087dd	-0.14114328
96	0xbdfdc525	-0.12391118
97	0xbd3fe83d	-0.04685234
98	0x3ca09f40	0.019607186
99	0xbd9a33ef	-0.07529437
100	0xbdbe5162	-0.09292866
101	0x3df9a1e3	0.121890806
102	0xbe669d6c	-0.22520989
103	0xbe652b08	-0.22379696
104	0x3d010421	0.03149808
105	0xbdafeb46	-0.08589797
106	0xbc6b62f0	-0.01436685
107	0x3e7bba2d	0.24582739
108	0xbcbd95fb	-0.023142805
109	0x3ddf7f14	0.1091291
110	0xbc500543	-0.012696567
111	0xbd941282	-0.072300926
112	0xbe150c1e	-0.14555404
113	0x3db8cb66	0.0902317
114	0xbd00df80	-0.031463146
115	0xbd593a12	-0.053033896
116	0xbe637107	-0.22211085
117	0xbdbec33f	-0.09314584
118	0x3e5b17a3	0.21395735
119	0x3dc59c83	0.09648993
120	0x3d82dc35	0.063896574
121	0xbdd1fb1d	-0.10252974
122	0xbea9b802	-0.331482
123	0xbe6fd3b4	-0.23420602
124	0x3d196ab6	0.037455283
125	0x3d99b4e8	0.07505208
126	0xbd82b477	-0.06382077
127	0xbe001e99	-0.12511672
128	0xbe0d3731	-0.13790585
129	0x3e42a51a	0.19008294
130	0x3c5d7105	0.0135157155
131	0xbe49b480	-0.19697762
132	0xbe1aab46	-0.15104398
133	0x3e12a588	0.14320958
134	0xbd717645	-0.05895068
135	0x3e36e4d2	0.17860726
136	0xbcab8e28	-0.020941809
137	0xbd7c785e	-0.06163823
138	0xbdb3be65	-0.08776549
139	0xbbff36fb	-0.0077885366
140	0x3e269923	0.16269355
141	0xbdbc4a84	-0.091939
142	0xbcb14340	-0.021638513
143	0xbe3f1cd9	-0.18663348
144	0xbd34b5a7	-0.04411855
145	0xbbe2f9d7	-0.006926756
146	0x3d3d5eff	0.046233173
147	0xbda430a7	-0.08017092
148	0x3c08a0bb	0.008339102
149	0x3dcd8485	0.10035042
150	0xbc8a3009	-0.016868608
151	0xbcb73739	-0.0223652
152	0xba6c314e	-0.00090100325
153	0xbdf00f93	-0.117217205
154	0xbe087412	-0.13325527
155	0xbe408163	-0.18799357
156	0x3c978e6d	0.018500531
157	0xbdfc8c92	-0.12331499
158	0x3e05bf88	0.13061345
159	0xbc8f9dca	-0.017531294
160	0xbd5d33bf	-0.054004427
161	0x3da64a91	0.08119691
162	0x3d0d2bca	0.03446559
163	0xbdd6734d	-0.10471211
164	0xbdae4853	-0.085098885
165	0x3be273d9	0.006910783
166	0xbe186e5b	-0.14885847
167	0xbe0e804d	-0.1391613
168	0x3e374b3f	0.17899798
169	0x3d8c7e55	0.068600334
170	0xbe2b0d2a	-0.1670424
171	0x3e598f34	0.21246034
172	0xbdb02497	-0.08600729
173	0x3d9a7d96	0.07543485
174	0xbd96d45b	-0.07364722
175	0x3d4bcf08	0.049757987
176	0x3d0ad645	0.03389575
177	0xbdff36cc	-0.124616235
178	0x3c3efcca	0.011656949
179	0x3d93c641	0.07215548
180	0x3d35109c	0.044205293
181	0xbdc29441	-0.095009334
182	0x3c50af70	0.01273714
183	0xbe3ea84e	-0.1861889
184	0xbccdae33	-0.025107479
185	0xbdfd3084	-0.12362769
186	0x3e0657ba	0.13119403
187	0x3d98d48a	0.074624136
188	0xbe42a39b	-0.19007723
189	0xbe2933d5	-0.16523679
190	0x3df90526	0.12159185
191	0xbb50cd09	-0.0031860492
192	0x3d20b637	0.039236274
193	0x3e055861	0.13021995
194	0x3cf1186f	0.029430596
195	0x3cea21af	0.028580515
196	0xbcaf1518	-0.021372363
197	0x3bf55bb9	0.007487741
198	0x3c862298	0.016373917
199	0xbdd039a1	-0.10167242
200	0x3e2247ee	0.15847751
201	0xbda0b12f	-0.07846295
202	0xbd96bb56	-0.0735995
203	0xbcce7be2	-0.025205556
204	0x3d126f3e	0.03575062
205	0xbd13b138	-0.03605768
206	0x3e761bcb	0.2403404
207	0xbdf071c8	-0.11740452
208	0x3c58d9bc	0.013235506
209	0x3e06eeb0	0.1317699
210	0x3ded7dde	0.11596273
211	0x3d619906	0.055077575
212	0x3ca94419	0.020662354
213	0x3ceae3d8	0.028673097
214	0xbda02c4d	-0.0782095
215	0x3d8eef0d	0.06979189
216	0x3d6ffa53	0.058588337
217	0x3ca49f40	0.020095468
218	0xbd8db478	-0.06919187
219	0x3e37b495	0.1793998
220	0x3e3ade23	0.18248801
221	0x3e6b8e23	0.2300344
222	0xbc99350f	-0.018702058
223	0x3d334d5b	0.043774944
224	0xbd5ef563	-0.054433238
225	0x3d9b7675	0.07590953
226	0x3e265b90	0.16245866
227	0x3d1b56a0	0.03792441
228	0x3dbbe526	0.09174566
229	0xbe047bd5	-0.12937863
230	0xbd48f9c2	-0.049066313
231	0x3d06b324	0.032885686
232	0xbdf21ef5	-0.11822311
233	0x3e0f1989	0.13974585
234	0x3d9f5d98	0.077815235
235	0xbcb86577	-0.02250932
236	0x3cdd2cfd	0.026998991
237	0xbe99c2f3	-0.30031547
238	0xbd954316	-0.07288186
239	0xbe0431d7	-0.12909637
240	0xbd3f9842	-0.046776064
241	0xbc227ccf	-0.009917452
242	0xbe125ab0	-0.14292407
243	0xbbad1f12	-0.005283245
244	0x3d08ee96	0.03343066
245	0x3db248cb	0.087052904
246	0x3e6703d5	0.22560056
247	0x3e58a281	0.2115574
248	0x3d2cb7cb	0.042167466
249	0x3c96259e	0.018328484
250	0x3da8ac96	0.08236043
251	0xbe1f4afb	-0.15555947
252	0x3d8610f4	0.06546202
253	0x3c9f563e	0.019450303
254	0x3decb359	0.11557645
255	0x3dcdc707	0.10047727
